====================================================================================
7
140/140 [==============================] - 1s 4ms/step - loss: 0.4626 - accuracy: 0.8177
Loss:  0.46263524889945984  Accuracy:  0.8177118301391602
====================================================================================

 Layer (type)                Output Shape              Param #   
=================================================================
 dense_71 (Dense)            (None, 256)               17920     
                                                                 
 activation_23 (Activation)  (None, 256)               0         
                                                                 
 batch_normalization_57 (Ba  (None, 256)               1024      
 tchNormalization)                                               
                                                                 
 dropout_47 (Dropout)        (None, 256)               0         
                                                                 
 dense_72 (Dense)            (None, 256)               65792     
                                                                 
 activation_24 (Activation)  (None, 256)               0         
                                                                 
 batch_normalization_58 (Ba  (None, 256)               1024      
 tchNormalization)                                               
                                                                 
 dropout_48 (Dropout)        (None, 256)               0         
                                                                 
 dense_73 (Dense)            (None, 128)               32896     
                                                                 
 batch_normalization_59 (Ba  (None, 128)               512       
 tchNormalization)                                               
                                                                 
 dropout_49 (Dropout)        (None, 128)               0         
                                                                 
 dense_74 (Dense)            (None, 64)                8256      
                                                                 
 batch_normalization_60 (Ba  (None, 64)                256       
 tchNormalization)                                               
                                                                 
 dropout_50 (Dropout)        (None, 64)                0         
                                                                 
 dense_75 (Dense)            (None, 64)                4160      
                                                                 
 batch_normalization_61 (Ba  (None, 64)                256       
 tchNormalization)                                               
                                                                 
 dropout_51 (Dropout)        (None, 64)                0         
                                                                 
 dense_76 (Dense)            (None, 32)                2080      
                                                                 
 batch_normalization_62 (Ba  (None, 32)                128       
 tchNormalization)                                               
                                                                 
 dropout_52 (Dropout)        (None, 32)                0         
                                                                 
 dense_77 (Dense)            (None, 1)                 33        
                                                                 
=================================================================


# Hyperparameters
    def input_layer(self):
        return keras.layers.InputLayer(input_shape = (69,)); # 11 is total features dimension

    def hidden_layer(self):
        return [
            keras.layers.Dense(256, kernel_initializer = "glorot_uniform", kernel_regularizer = tensorflow.keras.regularizers.l2(1e-4)),
…
====================================================================================



====================================================================================
6
2024/01/20 01:21
140/140 [==============================] - 1s 5ms/step - loss: 0.4580 - accuracy: 0.8152
Loss:  0.4580429196357727  Accuracy:  0.8152393698692322
====================================================================================
Model: "sequential_65"
_________________________________________________________________
 Layer (type)                Output Shape              Param #   
=================================================================
 dense_384 (Dense)           (None, 128)               8960      
                                                                 
 activation_79 (Activation)  (None, 128)               0         
                                                                 
 batch_normalization_5 (Bat  (None, 128)               512       
 chNormalization)                                                
                                                                 
 dense_385 (Dense)           (None, 64)                8256      
                                                                 
 batch_normalization_6 (Bat  (None, 64)                256       
 chNormalization)                                                
                                                                 
 dropout_3 (Dropout)         (None, 64)                0         
                                                                 
 dense_386 (Dense)           (None, 64)                4160      
                                                                 
 batch_normalization_7 (Bat  (None, 64)                256       
 chNormalization)                                                
                                                                 
 dropout_4 (Dropout)         (None, 64)                0         
                                                                 
 activation_80 (Activation)  (None, 64)                0         
                                                                 
 dense_387 (Dense)           (None, 16)                1040      
                                                                 
 batch_normalization_8 (Bat  (None, 16)                64        
 chNormalization)                                                
                                                                 
 dropout_5 (Dropout)         (None, 16)                0         
                                                                 
 dense_388 (Dense)           (None, 8)                 136       
                                                                 
 batch_normalization_9 (Bat  (None, 8)                 32        
 chNormalization)                                                
                                                                 
 dense_389 (Dense)           (None, 1)                 9         
                                                                 
=================================================================
Total params: 23681 (92.50 KB)
Trainable params: 23121 (90.32 KB)
Non-trainable params: 560 (2.19 KB)
_________________________________________________________________



def input_layer(self):
        return keras.layers.InputLayer(input_shape = (69,)); # 11 is total features dimension
…
